titanic/my_titanic.model (npz, 4708 bytes, 8 tensors)

predictor/l3/W f4 [15, 15]
0.26399928 -0.18705766 -0.008229372 0.004696183 0.041737802 -0.011966276 0.5366848 0.24776152
-0.17095737 0.014072335 -0.44635248 0.0349808 -0.00029716737 0.050359756 -0.27361342 -0.3150913
-0.29334894 -0.5376036 -0.41764224 0.176449 -0.06371983 0.23764695 0.23657513 0.16006222
-0.44290474 0.16648443 0.1564716 0.3000865 -0.18304943 -0.17398219 -0.017553577 -0.047511578
0.27901006 -0.8476096 -0.17182694 0.572598 0.60068494 0.26328886 -0.039715353 -0.34140706
0.40331998 0.31031042 -0.09382974 -0.30612227 0.11485233 -0.2941688 0.20624495 -0.5143826
0.40050834 0.2570867 -0.37863126 0.24456184 -0.3126842 -0.86835366 0.86062187 0.25272742
0.40381515 0.14914967 0.13562243 -0.17476296 -0.11773481 0.004817386 -0.079936504 -0.09006486
-0.42071807 -0.10657131 0.29847628 -0.10453808 -0.31579426 -0.107922696 0.13353787 -0.1702017
0.4284455 0.26704776 -0.23288402 0.49557155 -0.44239882 -0.13542557 0.116194054 -0.045227055
-0.017976625 0.21241722 -0.5411952 0.51734346 -0.25224343 -0.24383816 -0.056099944 -0.21531712
0.19194658 -0.81541115 0.08098539 -0.22946355 -0.51355106 0.072838925 0.19220556 0.28053114
0.45901272 -0.0070091444 0.17611697 -0.1734891 -0.44419786 -0.3250642 -0.3048442 0.31687337
-0.27810982 0.111292064 0.52335715 0.19871674 0.18014945 0.22436143 -0.1792584 -0.10775391
0.14342974 -0.56769854 -0.009624044 0.66374964 0.18627587 0.0022969367 -0.29840532 0.015346426
0.6214216 -0.18998201 -0.06600123 0.00946813 0.43211734 0.13173789 0.43654627 -0.08567647
0.07333325 -0.3464869 -0.16516542 -0.23583202 -0.6765661 0.24258542 -0.68583775 -0.30252728
0.62499315 0.38510302 0.45528868 -0.083792895 0.10924651 0.010619122 -0.23806815 -0.61944574
-0.027195122 0.06777101 0.05074352 -0.28241268 -0.059904423 0.12179623 -0.48728517 0.4241472
-0.23080291 -0.061983112 0.16187526 -0.052628342 -0.10312389 0.17804118 -0.29454845 -0.30545098
-0.42615128 0.11983901 0.26484177 0.33502033 0.12701653 0.20776606 -0.19077617 -0.019757926
0.1458246 0.32382247 -0.032191783 0.2704415 -0.14723879 0.1954801 -0.1300798 -0.7520151
0.012341172 -0.14178836 0.22333515 -0.42930797 0.21682096 0.028830914 0.065597065 -0.45029274
0.28493714 0.2621019 0.18529859 0.040907785 0.30693322 -0.5658518 0.04843939 -0.07968758
0.034083124 0.13581257 0.063199505 -0.031943034 0.21444656 -0.35717928 0.07215658 -0.5326354
-0.3770826 0.110702656 -0.24753577 -0.09071203 -0.21989116 0.3013088 0.4980589 0.060895212
-0.28811008 -0.28271383 0.060631055 0.28465685 -0.36894387 0.014552486 -0.017484598 -0.23132737
0.31037423 -0.06310447 0.037336588 -0.35406825 -0.13348052 -0.17062654 0.07885376 -0.39501047
-0.19176751
00000000: ea2a 873e 0b8c 3fbe 7dd4 06bc 70e2 993b
00000010: 42f5 2a3d 330e 44bc 2d64 093f 32b5 7d3e
00000020: 730f 2fbe a78f 663c 5088 e4be 0748 0f3d
00000030: 21cd 9bb9 0846 4e3d 0f17 8cbe a653 a1be
00000040: d531 96be 64a0 09bf 34d5 d5be 0caf 343e
00000050: 8b7f 82bd b959 733e c040 723e 5ae7 233e
00000060: 69c4 e2be e57a 2a3e 173a 203e f0a4 993e
00000070: 4f71 3bbe 6328 32be 85cc 8fbc 809b 42bd
00000080: 68da 8e3e f1fc 58bf 67f3 2fbe c895 123f
00000090: 7dc6 193f cccd 863e 91ac 22bd e8cc aebe
000000a0: f57f ce3e 02e1 9e3e cf29 c0bd 0fbc 9cbe
000000b0: b337 eb3d 4b9d 96be e031 533e 94ae 03bf
000000c0: 6e0f cd3e dea0 833e f5db c1be 6b6e 7a3e
000000d0: 2518 a0be 6d4c 5ebf b751 5c3f 7d65 813e
000000e0: dcc0 ce3e b1ba 183e 9be0 0a3e 10f5 32be
000000f0: f31e f1bd 2adb 9d3b c0b5 a3bd ed73 b8bd
00000100: 5c68 d7be 0f42 dabd e2d1 983e 1018 d6bd
00000110: c9af a1be 9306 ddbd 27be 083e 5b49 2ebe
00000120: 355d db3e 7cba 883e 2679 6ebe 8ebb fd3e
00000130: 1982 e2be 00ad 0abe 26f7 ed3d 0140 39bd
00000140: b743 93bc e683 593e c58b 0abf 9f70 043f
00000150: 0d26 81be b6b0 79be 0ec9 65bd 177c 5cbe
00000160: a58d 443e c9be 50bf abdb a53d 7ef8 6abe
00000170: 1578 03bf 932c 953d 89d1 443e c7a1 8f3e
00000180: b703 eb3e f7ac e5bb 0258 343e 20a7 31be
00000190: e76d e3be d16e a6be 8a14 9cbe 3a3d a23e
000001a0: 6964 8ebe 18ed e33d bcfa 053f 677c 4b3e
000001b0: 1979 383e 01bf 653e 848f 37be 15ae dcbd
000001c0: 3fdf 123e b154 11bf 2bae 1dbc 7feb 293f
000001d0: 1abf 3e3e 3488 163b 95c8 98be 936f 7b3c
000001e0: 7c15 1f3f a58a 42be a72b 87bd 3720 1b3c
000001f0: 7c3e dd3e 4ce6 063e fe82 df3e 2577 afbd
00000200: be2f 963d bb66 b1be 2021 29be f37d 71be
00000210: 7033 2dbf 5068 783e 1093 2fbf dbe4 9abe
00000220: 8dff 1f3f 392c c53e 991b e93e 9c9b abbd
00000230: a2bc df3d d3fb 2d3c 23c8 73be ff93 1ebf
00000240: 4ec8 debc 87cb 8a3d 70d8 4f3d 6598 90be
00000250: 575e 75bd 4d70 f93d 717d f9be d229 d93e
00000260: 9957 6cbe 01e2 7dbd a1c2 253e d190 57bd
00000270: 9e32 d3bd 6d50 363e 0ecf 96be 1264 9cbe
00000280: 8030 dabe 286e f53d 5799 873e c987 ab3e
00000290: 9f10 023e a0c0 543e d45a 43be 60db a1bc
000002a0: 0b53 153e 0fcc a53e 88db 03bd 4f77 8a3e
000002b0: c4c5 16be ef2b 483e a433 05be 1084 40bf
000002c0: a132 4a3c f830 11be f8b1 643e 41ce dbbe
000002d0: 5006 5e3e cf2e ec3c c157 863d c58c e6be
000002e0: 48e3 913e 3832 863e eabe 3d3e ec8e 273d
000002f0: 5a26 9d3e aadb 10bf 6268 463d 3e33 a3bd
00000300: bf9a 0b3d 7312 0b3e be6e 813d b3d6 02bd
00000310: e197 5b3e 34e0 b6be d4c6 933d cb5a 08bf
00000320: f810 c1be 13b8 e23d 047a 7dbe 3bc7 b9bd
00000330: 262b 61be 2645 9a3e 9301 ff3e 426d 793d
00000340: 2a83 93be debf 90be 4558 783d 8bbe 913e
00000350: 36e6 bcbe 8d6d 6e3c dc3b 8fbc 15e1 6cbe
00000360: 5fe9 9e3e eb3c 81bd 40ee 183d 6f48 b5be
00000370: 1eaf 08be b9b8 2ebe 157e a13d d03e cabe
00000380: b45e 44be

predictor/l3/b f4 [15]
-0.0035950395 -0.004159379 0.02816375 0.029462382 -0.033250023 0.19433346 0.3109249 0.034366965
0.24333867 0.02460591 -0.09476946 0.2772634 0.2512672 0.095118366 -0.0122051025
00000000: c19a 6bbb 664b 88bb aab7 e63c 185b f13c
00000010: 2d31 08bd 5aff 463e 8c31 9f3e 60c4 0c3d
00000020: c62d 793e 5592 c93c 7e16 c2bd 78f5 8d3e
00000030: 18a6 803e 6bcd c23d e9f7 47bc

predictor/l4/W f4 [2, 15]
-0.74779314 0.019345045 -0.44190204 0.36867523 0.3150572 -0.4168932 -0.3789714 0.2935909
0.080787905 0.27139688 -0.07555411 -0.72731674 -0.20488867 0.11114438 0.33951586 0.10559559
-0.051729884 0.23108988 -0.28183562 -0.725825 0.31628087 0.36503556 -0.45412642 0.6626443
0.018181171 -0.16588524 0.48456955 0.364104 -0.52712935 -0.073515825
00000000: 5f6f 3fbf 8079 9e3c fc40 e2be 00c3 bc3e
00000010: 2d4f a13e 0773 d5be 8a08 c2be 8c51 963e
00000020: 2174 a53d 88f4 8a3e 1dbc 9abd 6e31 3abf
00000030: 56ce 51be aa9f e33d 06d5 ad3e 8042 d83d
00000040: b7e2 53bd d3a2 6c3e c24c 90be abcf 39bf
00000050: 91ef a13e f1e5 ba3e 4283 e8be 0fa3 293f
00000060: aef0 943c d2dd 29be 8019 f83e d76b ba3e
00000070: f3f1 06bf 778f 96bd

predictor/l4/b f4 [2]
-0.020062054 0.020062564
00000000: 2d59 a4bc 3f5a a43c

predictor/l2/W f4 [15, 15]
0.1727349 0.05127998 0.0015028598 0.21018189 0.65756303 -0.21988347 0.3050158 0.15396143
-0.017233336 0.2918392 0.5643109 0.06818425 0.15386488 0.14251974 -0.3432591 -0.07232734
-0.03537841 0.2968784 -0.4006499 0.4310826 0.051627893 -0.3000774 -0.06529896 0.3494698
0.18688168 -0.43148416 -0.76453143 0.06317373 -0.9309542 -0.033064075 0.31180632 -0.297393
0.045383967 -0.16318403 -0.46908867 -0.048545238 0.02831284 -0.41451094 -0.18267974 -0.5548964
0.03261149 -0.011264985 0.26148188 -0.4498695 -0.27056363 0.8344418 0.21996789 0.29369143
-0.09557907 0.14580077 -0.45876715 0.11118131 -0.049562305 0.31770393 0.5138774 -0.18478708
-0.1030955 -0.24979958 0.3499462 0.18642405 -0.5257071 -0.35771653 0.21910098 0.000738156
0.39639264 0.17821695 0.15275761 -0.47130987 -0.31246135 0.07835559 0.4181749 -0.020601442
-0.023146613 0.053870708 -0.0859379 -0.60391074 -0.013667445 0.06766724 -0.027613025 -0.3429099
0.594632 -0.27726972 0.21209691 -0.49668238 -0.3626122 0.49201313 0.64740664 -0.3039032
0.18127045 0.21999042 -0.13521655 0.02413113 -0.48908377 -0.27279526 0.05571974 -0.010167072
0.5719713 0.2583584 0.28780746 -0.014904114 0.268457 0.29790953 0.16103688 -0.47060212
-0.26844892 -0.12355263 0.003810881 -0.114515066 -0.1228851 0.20838065 -0.05180093 -0.028993724
-0.12872185 -0.12349459 -0.12279586 -0.0027546005 0.33905494 0.09511058 -0.3097197 -0.08062483
-0.38045317 -0.35107225 -0.7036944 0.25802025 0.33426318 0.40857384 0.14105754 0.19756535
0.07165116 0.12221442 0.5266109 -0.9277053 -0.36510405 0.02375149 -0.17928566 0.029389814
-0.2976799 0.1626149 -0.48283136 -0.050110783 -0.19179673 -0.6081329 -0.6137009 0.4252793
0.22073705 -0.7496463 -0.4573124 0.04887656 -0.13671821 0.3167995 0.63560057 -0.10888399
-0.533964 -0.61644447 0.039953128 -0.40751094 -0.055799842 -0.08516215 0.53902817 0.3888884
-0.7281866 -0.17366102 -0.117711246 -0.5275814 0.54163146 0.3823635 -0.018585682 -0.02182984
0.07423737 -0.04193395 -0.37958956 -0.340725 -0.18615602 0.28457287 0.16145197 -0.7212089
0.060708467 -0.36629787 -0.030367607 0.25722843 -0.115228824 -0.21368161 -0.22520857 -0.011748713
-0.30689976 0.28318447 0.15408057 -0.34438047 0.114822514 -0.20479292 -0.2512058 0.341557
-0.37917966 0.17925516 -0.22865637 -0.35494673 0.38409922 -0.07528953 -0.05346689 0.9473573
0.27392924 0.29530132 0.029663743 -0.3586877 0.066126056 0.42566428 0.3865353 0.1176492
0.30982962 -0.04409164 -0.34515977 -0.042235393 -0.8001728 0.5092836 -0.63854843 0.49806994
-0.21201469 0.32513696 -0.8865553 -0.19836038 0.4248879 -0.7337342 0.121638365 0.08579447
-0.35448042
00000000: 6be1 303e f50a 523d 9bfb c43a ec39 573e
00000010: 0d56 283f 2229 61be 082b 9c3e 11a8 1d3e
00000020: ed2c 8dbc f36b 953e ae76 103f 2fa4 8b3d
00000030: c18e 1d3e b2f0 113e a8bf afbe 5b20 94bd
00000040: f4e8 10bd 7200 983e fc21 cdbe dcb6 dc3e
00000050: c577 533d bfa3 99be 76bb 85bd b5ed b23e
00000060: e95d 3f3e 7eeb dcbe 55b8 43bf 3b61 813d
00000070: 0453 6ebf 326e 07bd 14a5 9f3e e543 98be
00000080: 8ae4 393d b719 27be 642c f0be 5fd7 46bd
00000090: 54f0 e73c c73a d4be 6610 3bbe b10d 0ebf
000000a0: a093 053d c690 38bc f4e0 853e 4c55 e6be
000000b0: 5187 8abe fa9d 553f 433f 613e b95e 963e
000000c0: f6be c3bd cc4c 153e 87e3 eabe 07b3 e33d
000000d0: d801 4bbd 17aa a23e 788d 033f d338 3dbe
000000e0: bc23 d3bd 76cb 7fbe 262c b33e f2e5 3e3e
000000f0: be94 06bf 9f26 b7be 025c 603e d080 413a
00000100: faf3 ca3e 817e 363e 7e6c 1c3e 874f f1be
00000110: effa 9fbe e578 a03d 051b d63e 5bc4 a8bc
00000120: f79d bdbc 88a7 5c3d 3600 b0bd e599 1abf
00000130: 6bed 5fbc 1f95 8a3d b634 e2bc e391 afbe
00000140: ce39 183f 4cf6 8dbe ef2f 593e 274d febe
00000150: 4ea8 b9be 25e9 fb3e 71bc 253f 3399 9bbe
00000160: f69e 393e 2b45 613e 3576 0abe a6ae c53c
00000170: 3069 fabe d2ab 8bbe 623a 643d ca93 26bc
00000180: b66c 123f 8d47 843e 805b 933e 6330 74bc
00000190: 3273 893e 9987 983e dae6 243e c3f2 f0be
000001a0: 2372 89be 2909 fdbd f9bf 793b e086 eabd
000001b0: 2fab fbbd bd61 553e 362d 54bd 3f84 edbc
000001c0: a9cf 03be bbea fcbd 657c fbbd 8786 34bb
000001d0: 9c98 ad3e 56c9 c23d 9593 9ebe a21e a5bd
000001e0: c2ca c2be bebf b3be 5125 34bf 3b1b 843e
000001f0: 8b24 ab3e 9730 d13e 6371 103e 924e 4a3e
00000200: d8bd 923d 8e4b fa3d f9cf 063f 187e 6dbf
00000210: ebee babe 7c92 c23c a996 37be e8c2 f03c
00000220: 8069 98be 8584 263e ac35 f7be f740 4dbd
00000230: 5d66 44be 99ae 1bbf 811b 1dbf 35be d93e
00000240: e508 623e d2e8 3fbf da24 eabe ca32 483d
00000250: dcff 0bbe 8b33 a23e b8b6 223f 92fe debd
00000260: ddb1 08bf 4ecf 1dbf e4a5 233d 46a5 d0be
00000270: 608e 64bd 7e69 aebd c0fd 093f 611c c73e
00000280: 706a 3abf 32d4 31be 9812 f1bd 930f 07bf
00000290: 5ca8 0a3f 26c5 c33e 0041 98bc 7ed4 b2bc
000002a0: c309 983d efc2 2bbd 9059 c2be 8273 aebe
000002b0: af9f 3ebe 89b3 913e aa53 253e 25a1 38bf
000002c0: 71a9 783d 658b bbbe 7dc5 f8bc 72b3 833e
000002d0: 17fd ebbd 5acf 5abe 139d 66be ad7d 40bc
000002e0: f721 9dbe 8efd 903e 4cc7 1d3e a352 b0be
000002f0: 1128 eb3d 3cb5 51be 0c9e 80be 8fe0 ae3e
00000300: d623 c2be aa8e 373e e524 6abe 94bb b5be
00000310: a7a8 c43e 6631 9abd 1900 5bbd 0286 723f
00000320: 7440 8c3e bc31 973e 6101 f33c eaa5 b7be
00000330: 196d 873d abf0 d93e f4e7 c53e 10f2 f03d
00000340: fda1 9e3e 6f99 34bd c8b8 b0be 05ff 2cbd
00000350: 20d8 4cbf 6960 023f e977 23bf 0603 ff3e
00000360: 611a 59be 5a78 a63e 4af5 62bf fc1e 4bbe
00000370: e88a d93e 01d6 3bbf 891d f93d 03b5 af3d
00000380: 757e b5be

predictor/l2/b f4 [15]
0.1332226 -0.015525208 0.0053160065 0.011311228 0.092609406 0.007709991 -0.0152700115 -0.058081515
0.09734997 -0.081845075 -0.021309687 0.01425235 -0.06381389 0.16351102 0.08926897
00000000: 816b 083e 715d 7ebc e531 ae3b bb52 393c
00000010: 00aa bd3d 18a4 fc3b 122f 7abc e2e6 6dbd
00000020: 6c5f c73d 649e a7bd a791 aebc b082 693c
00000030: dbb0 82bd 6f6f 273e a6d2 b63d

predictor/l1/W f4 [15, 16]
0.038303662 0.30472025 -0.26631543 0.7641749 -0.1842816 -0.02775558 -0.4220147 -0.23415451
0.18868648 -0.17259629 0.47450528 -0.605506 0.21960022 -0.66924894 0.23512416 -0.043117203
-0.17477413 -0.327425 -0.04064479 0.087610595 0.041561533 -0.18926035 -0.055662677 -0.28476697
-0.303716 0.034991276 -0.29020366 -0.07863935 0.02572492 0.08252353 -0.39376062 0.055969488
0.3156188 -0.06361095 -0.008305177 -0.05770982 -0.4368478 -0.63404244 0.14954747 0.030935025
-0.049065094 -0.3418838 -0.24013156 -0.060843825 -0.26859155 -0.28746632 -0.31604418 0.106640324
-0.121036634 0.06116182 -0.1456439 -0.31677327 5.4112512e-05 -0.3479087 -0.3291214 -0.40069246
-0.009843118 0.11577933 -0.18050821 0.48020974 0.49974275 -0.6898833 0.26779285 -0.21948235
-0.1387547 0.06399403 -0.42323592 -0.40682995 0.21602951 0.0323741 -0.2902532 -0.23472983
-0.1068927 0.28805852 0.63555413 -0.2774396 -0.43780065 -0.01686301 -0.042356063 0.27797574
0.012591015 -0.006387781 0.40465555 -0.63116395 0.0917449 -0.13552952 -0.19001094 -0.07384052
-0.18815653 -0.37381634 0.061653413 0.045838017 -0.6076209 0.3131158 -0.70715034 -0.34530514
0.091264464 -0.4347133 -0.8370443 0.19224802 -0.04308543 -0.39810067 0.14424588 0.011449718
0.021914061 -0.323165 0.73030967 0.28333294 -0.65843415 0.17849068 0.23119557 -0.32121935
-0.077370845 0.040144082 -0.2735883 -0.13105132 0.20956808 0.13107482 -0.04643527 0.1299161
0.22605194 -0.14914754 -0.37883717 -0.34292606 -0.2320823 0.12238331 -0.33193985 0.27694795
-0.053049654 0.3494171 -0.013072078 -0.3436622 -0.1823573 -0.08542535 0.39624336 -0.38931113
0.10310829 -0.265912 0.2085738 -0.11541089 0.1632188 -0.23803142 -0.7255749 0.020333055
0.16496645 0.016726183 -0.32822856 -0.20835897 0.25599873 0.06504221 0.5755607 0.09305323
-0.09836291 0.75691706 0.26322806 0.33280125 0.40703195 0.14989069 0.479482 -0.035303142
-0.45237768 0.09667902 -0.22249946 -0.14637591 0.16131464 0.25579315 0.32306743 0.1711239
0.58948225 0.3963585 -0.1880686 0.5172594 -0.3240772 0.30251405 0.041976694 -0.1647174
0.15216307 -0.57146925 0.3327383 -0.4525336 -0.31018505 -0.11075053 -0.056572266 -0.36368382
0.13691387 -0.20758465 -0.1008205 0.2785625 -0.14349675 -0.113543965 0.084199235 -0.37091345
-0.110743046 0.048297472 -0.3711693 0.11324599 -0.027347539 -0.4317282 -0.33527228 -0.16007333
-0.1592719 0.089993134 -0.33466673 -0.059495546 0.06365526 -0.230365 0.024710339 -0.08447264
-0.17771867 0.17527261 0.060111813 0.13534552 -0.42305017 -0.34956208 0.72793067 0.52291477
0.0365195 0.136446 -0.33037797 -0.06543297 -0.18162565 0.54028666 0.19832514 0.20473436
0.46190032 -0.28860864 0.41273353 -0.22321753 0.11800963 0.24441434 0.46069375 0.1474576
0.5117183 0.17461123 0.27141747 -0.07560951 0.16897579 -0.10861049 0.3264756 0.51375127
00000000: 4de4 1c3d 4b04 9c3e 7f5a 88be f7a0 433f
00000010: 51b4 3cbe ac5f e3bc 5012 d8be 33c6 6fbe
00000020: 0737 413e 15bd 30be 5bf2 f23e 7102 1bbf
00000030: e1de 603e e653 2bbf 63c4 703e aa9b 30bd
00000040: fdf7 32be 40a4 a7be 277b 26bd 2f6d b33d
00000050: 6d3c 2a3d 77cd 41be 8cfe 63bd facc 91be
00000060: aa80 9bbe 0353 0f3d 9395 94be ab0d a1bd
00000070: 11bd d23c 1902 a93d fe9a c9be 4340 653d
00000080: ca98 a13e 7546 82bd 7012 08bc 2261 6cbd
00000090: 84aa dfbe 9b50 22bf f922 193e 736b fd3c
000000a0: 7bf8 48bd 650b afbe 0ce5 75be 6037 79bd
000000b0: d584 89be c92e 93be 8bd0 a1be 3e66 da3d
000000c0: 0ee2 f7bd d184 7a3d ad23 15be 1b30 a2be
000000d0: def6 6238 1721 b2be 9a82 a8be 9027 cdbe
000000e0: 0745 21bc b71d ed3d 25d7 38be 0dde f53e
000000f0: 48de ff3e 319c 30bf 251c 893e fbbf 60be
00000100: b615 0ebe 4d0f 833d 61b2 d8be 044c d0be
00000110: d736 5d3e b49a 043d 119c 94be 045d 70be
00000120: 8fea dabd 687c 933e adb3 223f 900c 8ebe
00000130: 6827 e0be 4c24 8abc 8d7d 2dbd d652 8e3e
00000140: 8b4a 4e3c 9750 d1bb 032f cf3e f693 21bf
00000150: c0e4 bb3d 40c8 0abe 3a92 42be b339 97bd
00000160: 1bac 40be db64 bfbe 4a88 7c3d a5c0 3b3d
00000170: 0b8d 1bbf b750 a03e ce07 35bf d6cb b0be
00000180: dde8 ba3d be92 debe 8948 56bf aadc 443e
00000190: 597a 30bd dad3 cbbe 31b5 133e 9997 3b3c
000001a0: 1e85 b33c e275 a5be 93f5 3a3f 0411 913e
000001b0: 248f 28bf 43c6 363e 88be 6c3e dd76 a4be
000001c0: 9b74 9ebd 1f6e 243d c413 8cbe 5132 06be
000001d0: 0499 563e 7a38 063e e932 3ebd ba08 053e
000001e0: 297a 673e 22ba 18be f2f6 c1be 0194 afbe
000001f0: fca6 6dbe 1aa4 fa3d 05f4 a9be 1fcc 8d3e
00000200: 984a 59bd cce6 b23e 452c 56bc 7ef4 afbe
00000210: dfbb 3abe 7cf3 aebd 69e0 ca3e ca53 c7be
00000220: 702a d33d 9e25 88be 5f94 553e 8b5c ecbd
00000230: d422 273e 82be 73be 47bf 39bf 8291 a63c
00000240: f7ec 283e 5905 893c 930d a8be 0e5c 55be
00000250: 4412 833e da34 853d f257 133f b192 be3d
00000260: 7e72 c9bd 51c5 413f d4c5 863e ed64 aa3e
00000270: 7e66 d03e f27c 193e aa7e f53e 079a 10bd
00000280: 0c9e e7be a6ff c53d e6d6 63be 91e3 15be
00000290: aa2f 253e 52f7 823e 1869 a53e 1b3b 2f3e
000002a0: 4fe8 163f 80ef ca3e 0e95 40be 1d6b 043f
000002b0: 72ed a5be 1fe3 9a3e c1ef 2b3d aeab 28be
000002c0: a3d0 1b3e cf4b 12bf ad5c aa3e 7cb2 e7be
000002d0: 93d0 9ebe 2dd1 e2bd 52b8 67bd c434 babe
000002e0: 2633 0c3e 1291 54be fa7a cebd be9f 8e3e
000002f0: d0f0 12be bd89 e8bd a670 ac3d 5ee8 bdbe
00000300: 40cd e2bd 92d3 453d e709 bebe 83ed e73d
00000310: f207 e0bc 7b0b ddbe cfa8 abbe 43ea 23be
00000320: 2c18 23be 524e b83d 7059 abbe 9ab1 73bd
00000330: b05d 823d cde4 6bbe 566d ca3c feff acbd
00000340: e2fb 35be aa7a 333e ce37 763d 0498 0a3e
00000350: 089a d8be cdf9 b2be aa59 3a3f bedd 053f
00000360: 7995 153d 80b8 0b3e 4d27 a9be b901 86bd
00000370: 13fc 39be 3a50 0a3f bf15 4b3e e2a5 513e
00000380: 337e ec3e 83c4 93be cf51 d33e 2393 64be
00000390: 08af f13d c147 7a3e 0de0 eb3e 20ff 163e
000003a0: f8ff 023f 49cd 323e 3bf7 8a3e 29d9 9abd
000003b0: fd07 2d3e 2d6f debd cf27 a73e 3485 033f

predictor/l1/b f4 [15]
-0.12382347 0.0 -0.067047335 0.08642969 0.0545043 0.17539036 0.22586845 0.19003637
-0.1596982 0.0011998516 0.290645 0.04130168 -0.018636517 0.15903407 -0.038135014
00000000: 2997 fdbd 0000 0000 1d50 89bd 0d02 b13d
00000010: e73f 5f3d 8899 333e 0f4a 673e e598 423e
00000020: ed87 23be 5744 9d3a 6ccf 943e f32b 293d
00000030: 9cab 98bc d4d9 223e 7633 1cbd
